pretrained/best_model.pt (torch, 97826 bytes, 18 tensors)

encoder.gcs.0.weight f4 [32, 11]
0	0x3f2df142	0.67946255
1	0x3f1e35e4	0.6180098
2	0xc05e85de	-3.4769206
3	0xc0618005	-3.5234387
4	0xc05fdde8	-3.497919
5	0x3f392b38	0.7233157
6	0xbecaaa67	-0.39583132
7	0x3eb6e8ca	0.3572448
8	0x3eb1111c	0.34583366
9	0x3ec1914e	0.3780617
10	0x3e8416ba	0.2579859
11	0x3d3925c3	0.045202028
12	0x3d9cb76e	0.07652174
13	0xbd861e83	-0.065487884
14	0xbda402a7	-0.080083184
15	0xbd89a8d1	-0.06721652
16	0x3d67576f	0.056479868
17	0x3ef5d7c3	0.48016176
18	0x3f5c7132	0.8611022
19	0xbd80eb25	-0.0629485
20	0xbe950a62	-0.29109484
21	0xbf0acd5b	-0.542196
22	0x3efc653c	0.49295986
23	0xbed47651	-0.41496518
24	0xbe810493	-0.25198802
25	0xbe7f6398	-0.24940336
26	0xbe839d62	-0.2570601
27	0x3e823023	0.2542735
28	0xbfa9e97c	-1.3274379
29	0x3ed3d885	0.4137613
30	0x3dfc61ce	0.12323342
31	0x3efccca3	0.49374875
32	0x3e9a9534	0.30191958
33	0xbea1ae90	-0.31578493
34	0xbee0fb70	-0.43941832
35	0xbea86c5a	-0.32895166
36	0xbeababe3	-0.33529577
37	0xbea79b33	-0.32735595
38	0x3e008eb6	0.1255444
39	0xbf4d6323	-0.80229396
40	0x3ee85cfc	0.4538344
41	0xbeafedb4	-0.3436104
42	0x3f158e8a	0.5842062
43	0xbe71665d	-0.23574205
44	0xbe0007ae	-0.1250293
45	0x3d8b648d	0.06806288
46	0xbc066d8a	-0.008204827
47	0xbbf2e5ab	-0.0074126325
48	0xbc4e2ac0	-0.012583435
49	0xbe16b10a	-0.14715973
50	0xbf37999d	-0.7171877
51	0xbea72f24	-0.32653153
52	0x3e29dbe7	0.16587792
53	0xbe9d9c3a	-0.30783254
54	0x3f613308	0.8796849
55	0x3fd8d44d	1.6939789
56	0x3e73f3b5	0.23823436
57	0x3dff0d04	0.124536544
58	0x3e04855c	0.12941498
59	0x3e030ca3	0.1279779
60	0xbdf6599b	-0.1202881
61	0xbf6efce3	-0.93354625
62	0x3e7f2856	0.2491773
63	0x3f1549ff	0.58316034
64	0xbe3b3e6e	-0.18285534
65	0xbdde90e7	-0.10867482
66	0xbe77c5bc	-0.24196523
67	0x3ecf6c3b	0.4051226
68	0xbe87d405	-0.26528946
69	0xbe86ea81	-0.26350787
70	0xbe851252	-0.2599054
71	0xbde780cf	-0.11303865
72	0x3ee9f5a7	0.4569523
73	0xbca22bf0	-0.019796342
74	0x3e380f28	0.17974532
75	0x3e3d4a08	0.18485272
76	0x3e63b07a	0.22235289
77	0x3fa625f5	1.2980334
78	0xbebe311b	-0.3714684
79	0xbedc01fa	-0.42970258
80	0xbedbe753	-0.42949924
81	0xbed19bbb	-0.40939125
82	0x3e198638	0.14992607
83	0xc0452517	-3.0803888
84	0x3f07d633	0.5306122
85	0xbf449266	-0.76785886
86	0xbf2abfd8	-0.6669898
87	0x3f47f958	0.78114843
88	0xbf441662	-0.76596653
89	0x3f0a9f96	0.5414976
90	0x3eb11b65	0.34591213
91	0x3eb0d9b4	0.34541094
92	0x3eb178b6	0.34662408
93	0x3f284136	0.65724504
94	0xc0b118bf	-5.534271
95	0xbe106ad9	-0.14103259
96	0x3ea0f0bc	0.31433666
97	0x3eb3b2d2	0.35097367
98	0x3dad1e3b	0.08453032
99	0xbd84707e	-0.06466769
100	0x3f0fa469	0.56110245
101	0x3e98fd6f	0.29880854
102	0x3e975909	0.29560116
103	0x3e9c5843	0.30536088
104	0xbe68f90a	-0.22751251
105	0xbfd3dac8	-1.6551142
106	0x3f31c364	0.6943877
107	0xbd4aa64d	-0.049475003
108	0x3f07ee66	0.5309814
109	0x3e6c49a7	0.23074971
110	0x3f78342c	0.9695461
111	0x3e637e2a	0.22216097
112	0x3ed7e0af	0.42163607
113	0x3ed1bc1b	0.40963826
114	0x3ed7aa2b	0.42122015
115	0x3ed2feff	0.41210172
116	0x3f19dd3a	0.6010319
117	0x3ed44e4d	0.4146599
118	0xbeb17f69	-0.3466752
119	0xbf20cad2	-0.6280948
120	0xbf1f5f4f	-0.62254804
121	0xbf3bf273	-0.73416823
122	0x3ee1b8a5	0.44086185
123	0x3e24c7cf	0.16091846
124	0x3e18888a	0.14895836
125	0x3e1b37ac	0.15157956
126	0xbea5f043	-0.32409868
127	0xbef8f747	-0.48626158
128	0x3e9aa900	0.30207062
129	0x3f2c40ba	0.67286265
130	0xbf47a72e	-0.7798947
131	0x3ee824ce	0.4534058
132	0x3f6f46b4	0.9346726
133	0x3efccb93	0.49374065
134	0x3ee2e236	0.4431321
135	0x3ee0e777	0.43926594
136	0x3edfbb9c	0.43697822
137	0x3f25ffbb	0.6484334
138	0xbf0187a5	-0.505976
139	0xbf8c4343	-1.0958027
140	0x3c84afea	0.016197164
141	0x3cddff89	0.027099388
142	0xbc01376d	-0.00788675
143	0xbf0831c9	-0.53200966
144	0xbda56406	-0.080757186
145	0x3e472caf	0.19450639
146	0x3e4ecc35	0.20195086
147	0x3e551d49	0.20811953
148	0x3f0c9562	0.5491544
149	0x3ed6e2b1	0.41969827
150	0xbe76d313	-0.24103956
151	0x3f2ec29a	0.6826569
152	0xbda07ed6	-0.07836692
153	0xbc4cffa6	-0.012512123
154	0x3f0c76e9	0.5486894
155	0xbce0f829	-0.027462082
156	0xbd504f6c	-0.050856993
157	0xbd53068a	-0.051519908
158	0xbd4ff88d	-0.050774146
159	0xbe27dc4a	-0.16392627
160	0x3e81d32f	0.25356433
161	0x3f3c9fbd	0.7368124
162	0x3f0c9f64	0.5493071
163	0x3f6b85fe	0.9200133
164	0xbfda60eb	-1.7060827
165	0x3f91bcbf	1.1385726
166	0xbf12abb5	-0.57293254
167	0xbf1fe2f2	-0.62455666
168	0xbf1f6b7c	-0.62273383
169	0xbf209311	-0.62724406
170	0xbe35c320	-0.17750216
171	0x3f3785ee	0.71688735
172	0xbdc1a44a	-0.09455164
173	0x3e78875c	0.24270386
174	0x3f181567	0.5940766
175	0x3f0c71e4	0.54861283
176	0x3f997c9a	1.199115
177	0x3a30ce53	0.0006744612
178	0x3d5e2c77	0.054241624
179	0x3d1f273a	0.03885577
180	0x3d340ef6	0.04395958
181	0x3e7090f9	0.23492803
182	0xbf33e1ac	-0.7026622
183	0xbf0df394	-0.55449796
184	0xbf1efb46	-0.6210216
185	0x3f9be09e	1.2177923
186	0xbefe0c7e	-0.49618906
187	0x3faf88fd	1.371368
188	0x3cddc7a4	0.027072735
189	0x3d0365db	0.03207956
190	0x3ce525ad	0.027972067
191	0x3ceeffef	0.029174773
192	0xbefc9e4f	-0.4933953
193	0x3ef69769	0.48162392
194	0x3f1fab7b	0.62371033
195	0xbfe00ddd	-1.7504231
196	0x3f1ba16a	0.60793173
197	0x3f255b53	0.64592475
198	0x3f98d1d7	1.1939038
199	0xbb044515	-0.0020182778
200	0x3e06eb1d	0.13175626
201	0x3e0b8f95	0.13628991
202	0x3e0a8bf9	0.13529958
203	0xbeef1318	-0.46694255
204	0x3f59828a	0.8496481
205	0x3ea6dfd5	0.32592645
206	0xbdd6c1f8	-0.10486215
207	0xbb61ec4e	-0.0034473124
208	0x3dc408ac	0.095719665
209	0xbe969d3a	-0.2941683
210	0x3d9547fa	0.07289119
211	0x3db2005b	0.08691474
212	0x3d9c69a2	0.07637335
213	0x3db0f3a0	0.08640218
214	0x3f1d3e9a	0.6142365
215	0x3f1facea	0.6237322
216	0x3e554c92	0.2082999
217	0xbf1517b3	-0.5823929
218	0xbe149bc2	-0.14512542
219	0x3f233d74	0.63765645
220	0xbfa972c4	-1.3238149
221	0x3f32a2dd	0.6977976
222	0xbddf1a18	-0.10893649
223	0xbddeb06c	-0.108734936
224	0xbddf3017	-0.10897844
225	0xbefe2148	-0.49634767
226	0xbe220e38	-0.15825737
227	0x3ed6d8ad	0.41962186
228	0x3ed73b22	0.42037302
229	0x3f262ab2	0.649089
230	0xbd8dd55e	-0.06925462
231	0x3d7c5822	0.061607487
232	0x3ed09af7	0.4074323
233	0x3ee7f5c2	0.45304686
234	0x3ee5e7cd	0.44903412
235	0x3ee8081b	0.45318684
236	0xbe6cf4e7	-0.23140298
237	0x3e5e8424	0.21730095
238	0x3f119c59	0.5687919
239	0xbebbec47	-0.36703703
240	0xbead4261	-0.33839706
241	0x3e72c21c	0.2370686
242	0x3ebad2d5	0.36488977
243	0x3c7517ba	0.01495927
244	0xbf64350f	-0.8914346
245	0xbf5dedb3	-0.86690825
246	0xbf5ee678	-0.8707042
247	0xbea5fd1e	-0.32419676
248	0xbf5cb043	-0.86206454
249	0x3f115f40	0.56785965
250	0x3edf1381	0.43569568
251	0xbef9baf0	-0.48775434
252	0xbe8e7510	-0.27823687
253	0x3e1b5a96	0.15171275
254	0xbe82af8b	-0.25524554
255	0x3e369b45	0.17832668

encoder.gcs.0.bias f4 [32]
0	0xbe49ba07	-0.1969987
1	0xbe8b26dc	-0.27178085
2	0xbd44ba94	-0.048029497
3	0x3dd840e9	0.10559256
4	0x3a2525b0	0.00062998664
5	0xbe9ab653	-0.30217227
6	0xbd13ec1d	-0.036113847
7	0xbcc376c2	-0.02386034
8	0xbe8d9c41	-0.27658275
9	0xbf22c5a0	-0.635828
10	0x3db61d69	0.08892328
11	0xbe88c8b4	-0.26715624
12	0xbd9aac0a	-0.07552345
13	0xbeae7d11	-0.34079793
14	0xbdff11c3	-0.1245456
15	0xbead98b3	-0.33905563
16	0xbddfc686	-0.10926537
17	0xbd8297e8	-0.0637663
18	0xbe924273	-0.28566322
19	0xbe8355e4	-0.25651467
20	0xbe929d3c	-0.28635585
21	0xbe88d78d	-0.26726952
22	0x3d648cd7	0.055798378
23	0xbe6d15da	-0.23152867
24	0xbe206074	-0.15661794
25	0x3dc7b986	0.09752183
26	0x3db621eb	0.08893188
27	0xbd2d4bbf	-0.042308565
28	0xbdcbe60d	-0.09955988
29	0xbdd5928f	-0.104283445
30	0x3d9c7590	0.07639611
31	0xbe49496c	-0.19656914

encoder.gcs.1.weight f4 [64, 32]
0	0xbe3d4a95	-0.18485482
1	0x3e5c9f19	0.21545066
2	0x3e86f6ec	0.2636026
3	0xbd034a7d	-0.03205346
4	0x3d81777f	0.0632162
5	0xbdad6e53	-0.08468308
6	0x3e8e3740	0.27776527
7	0x3de5185d	0.111862876
8	0x3bc41618	0.005984079
9	0x3ed1cdca	0.40977317
10	0x3e1fdf27	0.1561247
11	0x3e9102fe	0.28322595
12	0x3e49313d	0.19647689
13	0x3d17e469	0.037083063
14	0xbe5cc770	-0.21560454
15	0x3e922d08	0.2854998
16	0xbec892fa	-0.39174634
17	0x3d92e2a8	0.071721375
18	0xbec07352	-0.37587982
19	0xbd8948fd	-0.067033745
20	0x3e3883fb	0.18019097
21	0xbf15041b	-0.5820939
22	0xbe72852c	-0.23683614
23	0xbdd498c2	-0.10380699
24	0x3e16709d	0.14691396
25	0xbe5d6646	-0.21621045
26	0xbee18a04	-0.4405061
27	0xbfe175b0	-1.761404
28	0xbdb980f8	-0.09057802
29	0xc0018364	-2.0236444
30	0x3e224ac5	0.15848835
31	0xbde30a90	-0.11085999
32	0x3cc08e42	0.023505334
33	0x3ec3e6a5	0.38261905
34	0xbe814ec7	-0.25255415
35	0x3dab26a8	0.083569825
36	0xbf494ad4	-0.78629804
37	0x3de583a2	0.112067476
38	0xbdb8143e	-0.08988236
39	0xbdb0c2ec	-0.086309284
40	0xbe1a67e2	-0.1507869
41	0x3f1be6c1	0.6089898
42	0xbda15196	-0.078768894
43	0xbe830379	-0.25588587
44	0xbec1e0b2	-0.3786674
45	0xbe9a4db8	-0.3013742
46	0xbe86c221	-0.26319984
47	0xbf8a1ecd	-1.079065
48	0xbfb59e4a	-1.4188931
49	0xbd7365d8	-0.059423298
50	0x3e3826e4	0.17983586
51	0xbe8ead0e	-0.27866405
52	0x3ed7246b	0.42019972
53	0x3ee4a33e	0.44655794
54	0x3e2bb4a1	0.16768123
55	0x3ddc97b7	0.10771125
56	0x3db75dd6	0.08953445
57	0x3b66b34e	0.0035202089
58	0xbf28ec7a	-0.65985835
59	0xbf087557	-0.53304046
60	0xbf091437	-0.5354647
61	0xbe252e16	-0.16130862
62	0xbebedd1b	-0.37278065
63	0xbe401d79	-0.18761243
64	0xbec34638	-0.3813951
65	0xbe8db94f	-0.27680442
66	0x3d867053	0.06564393
67	0x3ddbadfb	0.107265435
68	0x3ec44952	0.3833719
69	0x3dbf663d	0.09345672
70	0x3ec558c0	0.38544273
71	0x3e0480d9	0.12939776
72	0xbf1ccfa0	-0.6125431
73	0xbf04bae3	-0.51847667
74	0x3e2f5284	0.17121321
75	0xbdab38c1	-0.08360434
76	0x3ddc8b4c	0.10768756
77	0xbe213fce	-0.15746996
78	0x3e3462b8	0.17615783
79	0xbe67f0f4	-0.2265051
80	0xbd24accd	-0.04020386
81	0x3e4ee3a5	0.20204027
82	0xbf17d69d	-0.5931185
83	0xbe062eaf	-0.13103746
84	0xbe171223	-0.14753012
85	0xbe800617	-0.25004646
86	0x3dba450e	0.090952024
87	0xbddf127b	-0.10892197
88	0xbde3ee54	-0.11129442
89	0x3efcf2c4	0.49403965
90	0x3ea713cf	0.326323
91	0xbe6468cc	-0.22305602
92	0xbf2af920	-0.66786385
93	0x3d0ba34f	0.03409129
94	0x3d13605f	0.03598058
95	0x3e47f969	0.19528736
96	0x3d2b7ddb	0.041868072
97	0xbf4b2a5b	-0.79361504
98	0xbd964f4a	-0.07339342
99	0xbda86d61	-0.08223987
100	0x3eb1a55a	0.34696466
101	0xbe9b4b66	-0.30330962
102	0x3e222768	0.15835345
103	0xbd4fcbc5	-0.05073144
104	0x3e778424	0.24171501
105	0xbde52507	-0.11188703
106	0xbd2df842	-0.042473085
107	0x3e53a11e	0.2066693
108	0x3db2d143	0.0873132
109	0xbf5fb011	-0.8737803
110	0x3e41f868	0.18942416
111	0x3eaf811b	0.34278187
112	0x3e613bb4	0.21995431
113	0xbe4b2357	-0.198377
114	0xbe03d751	-0.12875105
115	0x3e808ce3	0.25107488
116	0xbebf9f3f	-0.37426183
117	0x3f1286ae	0.57236755
118	0xbeeec111	-0.46631673
119	0xbe74e44d	-0.23915215
120	0xbe542e82	-0.20720866
121	0xbf47201a	-0.7778336
122	0xbd511a38	-0.051050395
123	0x3e2c0256	0.16797766
124	0x3e397aee	0.181133
125	0xbf82ceb1	-1.0219327
126	0xbf02444f	-0.5088548
127	0xbe25a853	-0.16177492
128	0xbe629cd0	-0.22130132
129	0x3e1761dd	0.14783426
130	0x3ec545dc	0.3852986
131	0xbdf6eaed	-0.12056527
132	0xbf48ef46	-0.784901
133	0x3db3ee69	0.087857075
134	0xbe586fd4	-0.21136409
135	0xbfdbe0ef	-1.7178019
136	0xbe8316ac	-0.25603235
137	0x3d864712	0.06556524
138	0x3ec84c56	0.3912074
139	0xbd13dfa9	-0.03610197
140	0x3b450326	0.003006169
141	0xbecef2b2	-0.40419537
142	0xbecece93	-0.4039198
143	0xbe3e5549	-0.18587221
144	0x3ec05f3b	0.37572655
145	0xbe6c7ae8	-0.2309376
146	0xbeaa793f	-0.33295628
147	0xbe3f851f	-0.18703125
148	0x3ef1c83c	0.4722308
149	0xbc8ee803	-0.017444616
150	0x3dd1ed53	0.10250344
151	0xbe8c345b	-0.27383694
152	0x3ed8ac55	0.4231898
153	0x3e5b941b	0.21443217
154	0xbdf989e8	-0.12184507
155	0xbf942dd5	-1.1576487
156	0x3e1f37dd	0.15548654
157	0xbf19061a	-0.59774935
158	0x3b95cffb	0.0045719123
159	0xbeb20fc5	-0.34777656
160	0xbdcf2f7a	-0.10116477
161	0x3bd07e91	0.006362744
162	0xbf1048ab	-0.5636088
163	0xbe3e502f	-0.18585275
164	0xbe73f93d	-0.23825546
165	0x3f0eeb86	0.5582813
166	0x3e4b9128	0.19879591
167	0xbf537080	-0.82593536
168	0x3ebebe42	0.3725453
169	0xbed3cc35	-0.41366735
170	0xbf160a2f	-0.5860929
171	0x3e84dbc7	0.25948927
172	0x3e5f5e9f	0.21813439
173	0x3e11a6c7	0.14223777
174	0xbef57940	-0.4794407
175	0xbe372c87	-0.1788808
176	0xbfa4e95d	-1.2883717
177	0xbfbc4c8e	-1.4710863
178	0xbdaab44b	-0.083351694
179	0xbf713e75	-0.94235927
180	0x3e80e57d	0.25175086
181	0xbf42e189	-0.7612539
182	0x3d6b9236	0.057512484
183	0xbde1ed4a	-0.110315874
184	0x3e97298c	0.29523885
185	0xbdbfd13c	-0.0936608
186	0xbe73870a	-0.23781982
187	0xbf107396	-0.5642637
188	0xbeb0706e	-0.34460777
189	0x3e0c75e1	0.13716842
190	0x3e0647a4	0.13113266
191	0x3da574b4	0.080789
192	0xbe05cb53	-0.13065843
193	0xbe04a1b0	-0.12952304
194	0x3dca14e8	0.09867269
195	0xbe17376d	-0.14767237
196	0x3e465a4a	0.1937038
197	0x3d33b8b6	0.043877326
198	0xbda5b7e5	-0.08091716
199	0x3d585326	0.05281367
200	0x3e874833	0.2642227
201	0xbe8fbc89	-0.28073528
202	0xbe6ae10e	-0.22937414
203	0x3c9424d4	0.018083967
204	0x3e0c4e10	0.13701653
205	0x3e9508d9	0.29108313
206	0x3d22ec76	0.039776288
207	0x3d91f74a	0.07127245
208	0x3e242249	0.16028704
209	0x3e848351	0.25881436
210	0xbbd5ead2	-0.006528237
211	0x3e373803	0.1789246
212	0x3d6d0671	0.05786747
213	0xbd8557ef	-0.065109126
214	0xbd8c3f13	-0.06847968
215	0x3eb4ae1e	0.3528909
216	0x3eb05344	0.34438527
217	0x3c11dfc8	0.008903451
218	0x3eb68442	0.3564778
219	0x3ed94102	0.4243241
220	0x3c510c9a	0.012759352
221	0xbe72ab17	-0.23698078
222	0x3e92c8d2	0.2866884
223	0x3ee31caf	0.4435782
224	0xbffc0dd1	-1.9691716
225	0x3e72657b	0.23671524
226	0xbda51da4	-0.08062294
227	0xbe75b19f	-0.23993538
228	0x3e322740	0.17397785
229	0x3d298028	0.041381985
230	0x3ed5cc57	0.4175746
231	0xbe9515b6	-0.29118127
232	0x3e809e09	0.2512057
233	0x3ea43a02	0.32075506
234	0x3e84a3a3	0.25906095
235	0x3e12c73d	0.14333816
236	0xbd71f8e0	-0.059075236
237	0x3e2d90e0	0.16949797
238	0xbdcfa8ff	-0.10139655
239	0xbec8a648	-0.39189363
240	0xbe2e42ba	-0.17017642
241	0x3dd20ba6	0.10256128
242	0xbefeac41	-0.49740794
243	0x3ea0f871	0.31439546
244	0x3e1d1b25	0.15342386
245	0x3e8dd214	0.2769934
246	0x3e6b31b9	0.22968186
247	0x3dbc6bad	0.09200225
248	0x3de9218d	0.113833524
249	0xbecb5c3d	-0.3971881
250	0xbeccf1d9	-0.40028265
251	0xbf8e219d	-1.1104008
252	0x3da240c6	0.07922511
253	0xbf21654b	-0.63045186
254	0xbf2dba34	-0.6786225
255	0xbd025d1a	-0.03182707

encoder.gcs.1.bias f4 [64]
0	0xbe175a88	-0.14780629
1	0xbd22d890	-0.03975731
2	0xbe0f2d30	-0.13982081
3	0xbe1c5913	-0.15268354
4	0xbe1e49d1	-0.15457846
5	0xba3816cc	-0.000702244
6	0xbe615e61	-0.22008659
7	0xbe336552	-0.1751912
8	0xbe7c49ac	-0.24637479
9	0x3d28c93c	0.041207537
10	0xbe9f30e1	-0.3109198
11	0xbe015883	-0.12631421
12	0xbd2f8ce2	-0.042858966
13	0xbdbe9884	-0.09306434
14	0xbcea1454	-0.028574146
15	0xbe4517c2	-0.19247344
16	0xbd6413be	-0.05568289
17	0xbeb5c36c	-0.35500658
18	0xbd4a49b3	-0.04938669
19	0xbea6c37c	-0.32571018
20	0xbe32422d	-0.17408057
21	0xbe2a555c	-0.16634125
22	0xbe3019cf	-0.17197345
23	0x3dbdd41f	0.092689745
24	0xbda392d2	-0.07986988
25	0xbe214117	-0.15747486
26	0xbe118792	-0.14211872
27	0xbe96fa77	-0.29487965
28	0xbeaf3fec	-0.34228456
29	0xbd89f14c	-0.06735477
30	0xbd38dc1c	-0.045131788
31	0xbe072178	-0.13196361
32	0x3d1926a0	0.03739035
33	0xbe1a19df	-0.15048932
34	0xbd88f882	-0.06688024
35	0xbdfcc15e	-0.12341569
36	0xbe621a81	-0.22080423
37	0xbda4d4a1	-0.08048368
38	0xbefe6a7d	-0.4969062
39	0xbd94969a	-0.072552875
40	0xbe835088	-0.25647378
41	0xbde64d1f	-0.112451784
42	0xbdd8e297	-0.105900936
43	0xbded5201	-0.11587907
44	0xbe9e5376	-0.3092305
45	0xbe71c511	-0.23610331
46	0xbe666f64	-0.2250343
47	0xbe64c585	-0.22340973
48	0xbe61f0c7	-0.22064506
49	0x3da472a8	0.080296814
50	0xbe2c6008	-0.16833508
51	0x3b91288c	0.0044298824
52	0xbf0b8e8f	-0.545144
53	0xbd3a0ae7	-0.045420554
54	0xbd6be53d	-0.057591666
55	0xbe7afadc	-0.24509758
56	0xbe368f47	-0.17828093
57	0xbdf40020	-0.11914086
58	0xbe3386d1	-0.17531897
59	0xbd0375cc	-0.03209476
60	0xbe113df8	-0.14183795
61	0xbe21eb7f	-0.15812491
62	0xbd88e760	-0.06684756
63	0xbdc2b351	-0.09506858

encoder.gcs.2.weight f4 [128, 64]
0	0x3de7e0ce	0.11322175
1	0xbf8dffc1	-1.1093675
2	0xbec6abc2	-0.38802916
3	0x3eb3c85e	0.35113806
4	0xbc901a3a	-0.01759063
5	0xbf161d6f	-0.5863866
6	0x3dd402f8	0.10352129
7	0x3d9cf51c	0.076639384
8	0x3f317144	0.69313455
9	0xbf43c98c	-0.7647941
10	0xbd9338e2	-0.07188584
11	0x3e2572c1	0.16157056
12	0xc04f237e	-3.2365413
13	0xbe8f3f1c	-0.27977836
14	0x3e4e95a6	0.20174274
15	0xc0546919	-3.3189147
16	0xbf170022	-0.5898458
17	0x3edf48ef	0.4361033
18	0xbfac8df7	-1.3480824
19	0x3e1df896	0.1542686
20	0xbecd598c	-0.4010738
21	0xbea1099a	-0.31452638
22	0x3eb48537	0.35257885
23	0xbe3bafe0	-0.1832881
24	0x3e09736e	0.13422939
25	0x3e1ab1f3	0.15106945
26	0x3ed4b1f7	0.41542026
27	0x3f26c2af	0.65140814
28	0x3e32cb9c	0.17460483
29	0xbfe47507	-1.7848214
30	0xbdb484a8	-0.08814365
31	0xbe2309c4	-0.15921694
32	0x3e1e80b1	0.1547878
33	0x3d7986f1	0.060919706
34	0x3d812afb	0.06307026
35	0xbe9042c9	-0.28175953
36	0x3db243ef	0.087043636
37	0xbe87debd	-0.26537123
38	0x3f5a6d02	0.8532258
39	0x3eee2ff5	0.46520963
40	0xbe73e5fa	-0.23818198
41	0xbdbc0beb	-0.09181961
42	0xbd1599b3	-0.036523532
43	0xbe77128b	-0.24128167
44	0x3e595fed	0.21227999
45	0x3deb7e53	0.11498704
46	0xbdcc31b7	-0.0997042
47	0x3e161939	0.14658059
48	0x3f4c0195	0.79689914
49	0xbed373c5	-0.41299263
50	0xbd739ee4	-0.0594777
51	0xbcc7d3cf	-0.02439299
52	0x3e70a9e8	0.23502314
53	0xbd844a23	-0.06459453
54	0x3f1a223d	0.60208493
55	0xbf3679e3	-0.71279734
56	0x3e8e1aa7	0.2775471
57	0xbe6eb6ed	-0.23311968
58	0xbe18a152	-0.14905289
59	0x3d63262c	0.055456325
60	0xbea092ca	-0.3136199
61	0x3ee33a07	0.4438021
62	0xbeb1ac9f	-0.34702012
63	0x3e241dcc	0.16026992
64	0x3ebb8c6f	0.3663058
65	0x3e84bba8	0.2592442
66	0x3a3b603f	0.00071478257
67	0xbdc78370	-0.097418666
68	0xbde207ff	-0.110366814
69	0xbe224c7f	-0.15849493
70	0xbdb17ced	-0.08666406
71	0xbd60ee4a	-0.05491475
72	0x3ed9e724	0.4255916
73	0x3df97153	0.12179818
74	0x3e09d9a8	0.13461936
75	0x3dbd5a15	0.092456974
76	0xbe73c2f0	-0.23804832
77	0x3cb221ad	0.021744573
78	0xbf7f994e	-0.998433
79	0x3de02660	0.109448195
80	0x3d39951d	0.04530822
81	0x3dd73c5d	0.1050956
82	0xc048e9ce	-3.1392703
83	0xbd930b59	-0.07179899
84	0x3e54da5c	0.20786422
85	0x3e0848bc	0.13308996
86	0xbe89052e	-0.26761764
87	0xbe0c7e97	-0.13720165
88	0x3e08912f	0.13336633
89	0x3a5f3091	0.0008514012
90	0x3d38f15a	0.045152046
91	0x3d1e6f8f	0.03868061
92	0xbb185c75	-0.0023248468
93	0x3dad9818	0.08476275
94	0xbe2aebd3	-0.16691522
95	0xbd9efbd8	-0.07762879
96	0x3e6a2e99	0.22869338
97	0x3cef1c37	0.029188259
98	0xbe1272e4	-0.1430164
99	0xbdb097a4	-0.08622673
100	0xbba461eb	-0.0050165555
101	0x3e00644b	0.12538259
102	0xbd27070e	-0.040778212
103	0xbe69dfdf	-0.22839306
104	0x3e29bcb2	0.16575888
105	0xbd39fd15	-0.045407373
106	0x3d3a9738	0.04555437
107	0x3e400d15	0.1875499
108	0xbdcf4fc6	-0.101226375
109	0x3d3bb1d1	0.045823876
110	0xbbdd3d49	-0.0067516905
111	0x3e04974d	0.12948342
112	0xbd2db88f	-0.042412337
113	0xbe487917	-0.19577442
114	0xbf83b21b	-1.0288728
115	0x3eac7379	0.3368185
116	0x3e7622b4	0.24036676
117	0x3d66ffd3	0.056396317
118	0xbdb14322	-0.08655383
119	0x3e5d5a1d	0.21616407
120	0x3ea66062	0.3249541
121	0x3ca102a5	0.019654581
122	0xbe4be77d	-0.19912525
123	0x3d3fc647	0.04681995
124	0x3d3e02b5	0.0463893
125	0x3c6fd180	0.014637351
126	0x3e1fe40d	0.15614338
127	0x3d08ed32	0.033429332
128	0xbe84868e	-0.25883907
129	0x3d7e0477	0.062015977
130	0xbe66813d	-0.22510238
131	0x3eb59869	0.35467842
132	0x3e8292da	0.25502664
133	0xbe8ef6fc	-0.2792281
134	0x3e93c013	0.28857478
135	0x3cd17611	0.025568994
136	0xbb6584d7	-0.0035021806
137	0x3dfe8706	0.124280974
138	0x3d3a424a	0.045473374
139	0x3b25ab29	0.0025279021
140	0xbf5a9cb4	-0.8539536
141	0xbdc07ae6	-0.09398441
142	0x3e80ea74	0.25178874
143	0x3e79e32d	0.24403067
144	0x3e42c731	0.19021298
145	0xbe041781	-0.12899591
146	0xbda9c628	-0.082897484
147	0x3dafcc30	0.085838675
148	0x3e225203	0.15851597
149	0xbe2b33ec	-0.16719025
150	0x3e88b96d	0.2670397
151	0xbdc13f75	-0.094359316
152	0xbe8c66a1	-0.2742205
153	0x3ea628dd	0.3245305
154	0x3c2405fb	0.0100111915
155	0xbe5efcf9	-0.21776189
156	0xbddf9897	-0.10917776
157	0xbe8241a8	-0.25440717
158	0x3e45b7e6	0.19308433
159	0xbef93a62	-0.48677355
160	0xbeaf0dcc	-0.34190214
161	0xbefdb59f	-0.49552628
162	0xbcbd4ac2	-0.023106936
163	0x3e40770c	0.18795413
164	0x3d9dc28e	0.07703124
165	0xbdcc4557	-0.09974163
166	0xbe9bace5	-0.30405346
167	0xbeeb6829	-0.45977905
168	0xbdb5cb25	-0.08876637
169	0xbd758baa	-0.059947647
170	0xbebb93a3	-0.36636075
171	0x3dfa3c74	0.12218562
172	0x3da120d8	0.078675926
173	0x3da7b35d	0.08188508
174	0x3e91dbd5	0.2848803
175	0x3e498bdc	0.19682258
176	0x3c06d606	0.008229738
177	0xbe389e70	-0.18029189
178	0xbde1ff43	-0.110350154
179	0xbe52edb6	-0.20598492
180	0x3e46227d	0.19349094
181	0xbed31059	-0.4122341
182	0xbe5b1488	-0.21394551
183	0x3da48b31	0.08034361
184	0xbe18e969	-0.14932789
185	0x3c387704	0.011258844
186	0x3d3be064	0.045868292
187	0xbf0fff45	-0.56248885
188	0xbe0ba0f9	-0.13635625
189	0xbcf32a78	-0.029683337
190	0x3e0d0a2e	0.13773414
191	0xbe35ec3d	-0.17765899
192	0x3dd1cefd	0.10244558
193	0xbeb12d24	-0.34604752
194	0xbddde439	-0.10834546
195	0x3e4f8dde	0.20268962
196	0x3e59c8f7	0.21268068
197	0xbdbcd452	-0.092201844
198	0x3e061c5b	0.13096754
199	0xbdf82eef	-0.12118327
200	0xbd355982	-0.044274814
201	0x3e057de5	0.13036306
202	0x3dfe58a7	0.12419253
203	0x3e0413d9	0.12898196
204	0x3e640118	0.22266042
205	0xbe41cd3d	-0.18925948
206	0x3e3c478a	0.18386665
207	0xbd8a8918	-0.0676443
208	0xbe82293e	-0.2542209
209	0xbd50f7e5	-0.05101766
210	0xbd823f1e	-0.06359695
211	0x3da3fc45	0.08007101
212	0x3e763db2	0.24046972
213	0x3dc42ea8	0.095792115
214	0x3e8925b9	0.26786593
215	0xbea06f01	-0.3133469
216	0x3e968612	0.29399163
217	0xbf0b791f	-0.5448169
218	0x3d192562	0.037389167
219	0x3d0a8c2e	0.033825092
220	0xbd1f76b8	-0.03893158
221	0x3d5aabd1	0.053386513
222	0xbe8e0791	-0.27740148
223	0x3b9123ac	0.0044293012
224	0xbea989d1	-0.33112958
225	0xba284683	-0.00064191985
226	0xbe7d4615	-0.24733765
227	0x3debad3c	0.11507651
228	0xbda70840	-0.081558704
229	0x3dfa2d79	0.122157045
230	0x3e05eb1d	0.1307797
231	0xbf262ad9	-0.6490913
232	0x3caec9dc	0.021336488
233	0xbe2b0ae2	-0.1670337
234	0x3e47fbc8	0.1952964
235	0xbdb24bb1	-0.08705843
236	0x3ca0b52f	0.019617645
237	0x3eb90692	0.36137825
238	0xbea93de6	-0.33055037
239	0xbeab10a7	-0.33411142
240	0xbd232f96	-0.039840303
241	0x3e02259d	0.12709661
242	0xbdafcea4	-0.085843354
243	0xbe028bf6	-0.12748703
244	0x3eb0b7d4	0.3451525
245	0x3e80aeed	0.25133458
246	0x3e9f7cbe	0.31149858
247	0xbd188fa9	-0.03724638
248	0xbe420c7b	-0.18950073
249	0xbd6088f9	-0.054818127
250	0xbeafcffa	-0.3433836
251	0x3c096f9e	0.008388428
252	0x3f03e4a6	0.51520765
253	0x3f08cc99	0.5343719
254	0x3c97901e	0.018501338
255	0xbe5d1ac9	-0.21592249

encoder.gcs.2.bias f4 [128]
0	0xbd6bbd14	-0.057553366
1	0xbdbc4f92	-0.09194864
2	0xbdb78174	-0.08960238
3	0xbe9414a2	-0.28921992
4	0xbce999ed	-0.02851578
5	0x3c0188f8	0.007906191
6	0xbe774fce	-0.24151537
7	0x3dd8f4eb	0.105935894
8	0xbd605af0	-0.054774225
9	0xbdc0b793	-0.09410014
10	0xbe938630	-0.28813314
11	0xbe2fef06	-0.17181024
12	0xbdbac515	-0.09119622
13	0xbea27baa	-0.31734973
14	0xbd65fb18	-0.056147665
15	0xbe6075f2	-0.21919993
16	0xbe01740b	-0.12641923
17	0xbdba991c	-0.091112345
18	0xbcc626ae	-0.024188366
19	0x3d894c1f	0.06703972
20	0xbd4db917	-0.050225344
21	0xbd661b5d	-0.05617844
22	0xbd97d55b	-0.07413741
23	0xbe1ec871	-0.1550615
24	0xbdc5e44c	-0.09662685
25	0xbdb7b3c3	-0.08969834
26	0xbe4af7dc	-0.19821113
27	0xbd2cc6a3	-0.042181622
28	0xbe6a0ec3	-0.22857194
29	0xbd8480ad	-0.064698555
30	0xbd584096	-0.05279597
31	0x3b8e98e1	0.0043517207
32	0x3ced50a8	0.028969124
33	0xbebea95e	-0.37238592
34	0xbd9a0db4	-0.07522145
35	0xbe693da8	-0.22777426
36	0xbe23d911	-0.16000773
37	0x3d7a9624	0.06117834
38	0xbd165dfc	-0.036710724
39	0xbe08df3f	-0.13366412
40	0xbdf4617d	-0.11932657
41	0xbd7de455	-0.061985333
42	0xbe2d2ba5	-0.1691118
43	0xbc81e6a5	-0.01585705
44	0xbe3addfc	-0.18248743
45	0xbe55ca1a	-0.20877877
46	0xbe871af5	-0.26387754
47	0xbe1d2552	-0.15346268
48	0xbdac7256	-0.08420245
49	0xbdf7388c	-0.12071332
50	0x3d12e72e	0.035865
51	0xbcecbc6d	-0.028898442
52	0xbca88189	-0.02056958
53	0xbd7c096f	-0.061532434
54	0xbe12eb9e	-0.14347693
55	0xbe25d4f7	-0.16194521
56	0xbe2f4315	-0.17115434
57	0xbd283fe8	-0.04107657
58	0xbd61e195	-0.055146772
59	0xbd4ef546	-0.05052688
60	0xbd4ab865	-0.04949226
61	0xbd168164	-0.03674449
62	0x3d162c47	0.03666332
63	0xbdb1773a	-0.08665319
64	0xbe280a42	-0.16410163
65	0xbd01ef6c	-0.03172247
66	0xbdcfa2d2	-0.101384774
67	0xbc968485	-0.018373737
68	0x3be5c2ff	0.0070117707
69	0xbe99175d	-0.29900637
70	0xbe119bb8	-0.14219558
71	0xbdd9e276	-0.10638897
72	0xbdbe6691	-0.09296907
73	0xbd3d5910	-0.046227515
74	0xbc5ec357	-0.013596377
75	0xbd7cc12e	-0.061707668
76	0xbe30420d	-0.17212696
77	0xbd28f94c	-0.041253373
78	0xbd68906e	-0.056778364
79	0xbdfd2108	-0.12359816
80	0xbd661ed3	-0.05618174
81	0xbd815831	-0.06315649
82	0xbe204efd	-0.15655132
83	0xbc284d0e	-0.0102722775
84	0xbdc85e12	-0.097835675
85	0xbde61d5a	-0.11236067
86	0xbe31e330	-0.17371821
87	0xbe94385f	-0.28949258
88	0xbdb1542c	-0.08658633
89	0x3e28d37d	0.16486926
90	0xbd8e9a78	-0.06963056
91	0xbd8c95c6	-0.068645045
92	0xbd401bf7	-0.04690167
93	0xbdb81bed	-0.089897014
94	0xbe872a71	-0.26399568
95	0xbd28388f	-0.041069563
96	0xbdede6bf	-0.11616277
97	0xbcd8fcfe	-0.026487824
98	0xbdfe1584	-0.124064475
99	0xbe9ce86a	-0.30646068
100	0xbd9ee27c	-0.07758042
101	0x3c9182fd	0.017762655
102	0xbe60e878	-0.2196368
103	0xbc950fa9	-0.018195944
104	0xbd4431be	-0.047899
105	0xbd2fafcc	-0.042892262
106	0xbd5df3e7	-0.05418768
107	0xbe8a605a	-0.27026635
108	0xbe2cb9c6	-0.16867742
109	0xbd8f183a	-0.06987043
110	0x39ac6d5d	0.00032887878
111	0xbe63f9fb	-0.22263329
112	0xbe6c5ca9	-0.23082222
113	0xbeb4d38f	-0.35317656
114	0xbd5c7186	-0.053819202
115	0xbe836307	-0.2566149
116	0x3ccb5c30	0.024824232
117	0xbc42889d	-0.011873391
118	0xbea0f643	-0.31437883
119	0xbe3beba0	-0.18351603
120	0xbe7bc48e	-0.24586698
121	0xbe1300b8	-0.14355743
122	0xbd7e0d3b	-0.062024336
123	0xbea1187a	-0.31463987
124	0xbd45b63f	-0.048269507
125	0xbda0e74e	-0.07856618
126	0xbe7d1357	-0.24714409
127	0xbe1bf8f3	-0.15231685

encoder.gcs.3.weight f4 [64, 128]
0	0xbe941493	-0.28921947
1	0xbc60c655	-0.013719161
2	0xbc4598ea	-0.012060383
3	0xbdf7b558	-0.120951355
4	0x3b34273b	0.0027489203
5	0x3dbbe74b	0.09174975
6	0x3d6ba13e	0.05752682
7	0x3e543895	0.2072471
8	0xbdf395fc	-0.118938416
9	0xbdd6ef83	-0.10494902
10	0xbbfc6e5b	-0.007703585
11	0xbdf5a3b0	-0.119941115
12	0xbcfe903b	-0.031074634
13	0x3d059e3f	0.03262162
14	0x3c7e27ca	0.015512416
15	0x3d1b30e2	0.037888415
16	0xbb16a7fa	-0.0022988305
17	0xbd1a0809	-0.03760532
18	0x3e045d02	0.12926105
19	0xbdc6712e	-0.09689556
20	0xbdade750	-0.08491385
21	0x3d24610e	0.04013162
22	0x3c83e22a	0.016099054
23	0xbd91618f	-0.07098686
24	0xbdd86fed	-0.10568223
25	0x3da099cb	0.07841834
26	0x3dc3a627	0.095531754
27	0x3dc8217f	0.09772014
28	0xbd9cccb3	-0.07656231
29	0x3cf2c3fa	0.029634465
30	0xbecb4f79	-0.3970907
31	0x3d8c0701	0.068372734
32	0xbdb3336b	-0.087500416
33	0x3e182fd0	0.14861989
34	0xbee98da9	-0.4561589
35	0xbdc06a91	-0.09395326
36	0xbb5cc6d8	-0.0033687856
37	0xbcf31da4	-0.02967722
38	0xbd6cb2ea	-0.057787813
39	0xbdac0556	-0.08399455
40	0xbdfce457	-0.1234824
41	0x3e511c84	0.20421034
42	0x3deff36d	0.11716352
43	0x3d886b6e	0.066611156
44	0xbd243070	-0.040085256
45	0x3c3c7168	0.0115016475
46	0xbd342536	-0.0439808
47	0xbeada997	-0.3391845
48	0xbde94364	-0.11389807
49	0xbcb8f5a3	-0.022578066
50	0xbeaad854	-0.3336817
51	0xbdfb3adb	-0.12267085
52	0xbd0ab0d8	-0.033860058
53	0x3d4d7c31	0.050167266
54	0x3e33d137	0.17560278
55	0xbd188dfa	-0.037244774
56	0x3d90166f	0.07035529
57	0x3c1aa2a6	0.0094381925
58	0xbc84bd4c	-0.016203545
59	0x3e2cd986	0.16879854
60	0xbcf71df8	-0.030165657
61	0xbe6450ad	-0.222964
62	0x3da3c676	0.07996838
63	0xbd19b4ed	-0.03752606
64	0xbd10c57a	-0.03534458
65	0xbe3b274f	-0.18276714
66	0x3e4e7588	0.20162022
67	0xbe1c2fdd	-0.15252633
68	0x3e4bbe8f	0.19896911
69	0x3cd72a36	0.026265245
70	0xbc0f1fc0	-0.008735597
71	0xbe546a19	-0.20743598
72	0x3d622867	0.055214312
73	0xbe217bd9	-0.157699
74	0x3dfcde25	0.12347058
75	0xbe042afe	-0.12907025
76	0xbb7f006a	-0.003891016
77	0x3cd55890	0.026043206
78	0xbe7be125	-0.24597605
79	0x3b449432	0.0029995558
80	0xbcb6d049	-0.022316115
81	0x3dac65a1	0.08417822
82	0xbd990945	-0.07472471
83	0x3df1e3da	0.11811037
84	0xbec85742	-0.39129072
85	0x3bd1c23b	0.006401328
86	0xbd835ab1	-0.064137824
87	0xbd0c3b8e	-0.034236483
88	0xbe3b395e	-0.18283603
89	0xbb6edc69	-0.0036447293
90	0xbd5ca2d1	-0.05386621
91	0xbcfa882d	-0.030582512
92	0xbe563d95	-0.20921929
93	0x3e68a5b2	0.22719458
94	0x3d26fd6a	0.04076902
95	0xbf1bc9a5	-0.6085456
96	0xbd8c16b4	-0.06840268
97	0xbed4b9da	-0.41548043
98	0xbe551090	-0.208071
99	0xbe11bc5f	-0.14232014
100	0x3d902896	0.07038991
101	0xbe8aba86	-0.2709543
102	0x3e861a93	0.2619215
103	0x3d3b9b22	0.045802243
104	0xbd8df2a3	-0.06931045
105	0x3c2592a7	0.010105765
106	0x3de335df	0.110942595
107	0xbca51510	-0.020151645
108	0x3d64676e	0.0557627
109	0xbe05bb55	-0.13059743
110	0xbf081adc	-0.53165984
111	0x3ce82980	0.028340101
112	0x3cd459d0	0.025921732
113	0xbd2ae0ae	-0.041718177
114	0xbef2e98a	-0.474438
115	0x3e2bc940	0.1677599
116	0xbe55a6e7	-0.2086445
117	0x3d3662a8	0.04452768
118	0x3cb4ec51	0.02208534
119	0x3da7b370	0.08188522
120	0x3cec1c51	0.028822096
121	0x3db085c2	0.08619262
122	0x3e2864ae	0.16444656
123	0x3c30dfb7	0.010795525
124	0xbe1d49e0	-0.15360212
125	0xbe45c58c	-0.1931364
126	0xbd24f49d	-0.040272344
127	0x3de78f93	0.113066815
128	0xbe29b694	-0.16573554
129	0xbca04f2c	-0.019569002
130	0xbe8501af	-0.25977847
131	0x3dde54b2	0.10855998
132	0xbe57965e	-0.21053454
133	0xbdd57323	-0.10422351
134	0x3cfde217	0.030991597
135	0xbdbde7fe	-0.092727646
136	0x3e6bd460	0.23030233
137	0x3f177feb	0.5917956
138	0x3e1eb0fb	0.154972
139	0xbea8b07f	-0.32947156
140	0x3e8edf7b	0.27904877
141	0x3ec27b8e	0.3798489
142	0xbe02923a	-0.12751094
143	0xbe2deef0	-0.16985679
144	0x3ec29878	0.3800695
145	0xbebfea44	-0.37483418
146	0xbec4345a	-0.3832119
147	0x3e9cc878	0.30621696
148	0xbe025f0b	-0.12731569
149	0x3cd35305	0.025796423
150	0xbe4e4415	-0.20143159
151	0x3f3abfed	0.72949106
152	0xbd72756b	-0.05919401
153	0xbdd81d3d	-0.10552452
154	0x3c13bec3	0.009017649
155	0x3db5ce03	0.08877184
156	0x3d9c3ff4	0.076293856
157	0x3de29432	0.11063422
158	0xbd5ce358	-0.05392775
159	0xbe606964	-0.21915203
160	0x3e96e93a	0.29474813
161	0xbea76554	-0.32694495
162	0xbe253ff2	-0.16137674
163	0x3da737cf	0.081649415
164	0x3e9b7f03	0.3037034
165	0x3e208916	0.15677294
166	0x3d649429	0.05580536
167	0xbdbcc599	-0.09217376
168	0xbc673af2	-0.014113175
169	0x3edf3496	0.43594807
170	0x3eaad20d	0.3336338
171	0xbf3a505a	-0.72778857
172	0x3e2e916d	0.17047663
173	0xbe8d619b	-0.2761353
174	0x3ec897d0	0.39178324
175	0x3ede9c6f	0.43478724
176	0xbe8d8ea2	-0.27647883
177	0x3e8badcb	0.2728103
178	0xbe22ed95	-0.15910943
179	0xbe1b0240	-0.15137577
180	0xbdc6e86a	-0.09712298
181	0x3e7d6ebc	0.24749273
182	0xbd914bbf	-0.070945255
183	0x3e26ebb3	0.1630085
184	0xbdfb8d2f	-0.12282788
185	0x3e6627a1	0.22476055
186	0x3e415f3d	0.18883987
187	0x3f07de66	0.5307373
188	0x3d9532df	0.072850935
189	0xbe087240	-0.13324833
190	0x3e76fabc	0.24119085
191	0xbf021039	-0.50806004
192	0xbd573cf3	-0.05254836
193	0xbef05fa6	-0.46947974
194	0xbe0df93f	-0.13864611
195	0x3d70cc64	0.058788672
196	0x3ef5d0c2	0.48010832
197	0x3e2ffbb6	0.17185864
198	0x3ecc2709	0.3987353
199	0x3f0f239e	0.5591372
200	0xbe6a6d02	-0.22893146
201	0xbe8f3683	-0.27971277
202	0x3c525455	0.012837489
203	0x3e10742d	0.14106818
204	0x3ee527ac	0.4475683
205	0xbe925a56	-0.28584546
206	0xbf047ad0	-0.51749897
207	0x3e85b2f3	0.2611309
208	0x3e6bd047	0.2302867
209	0xbd137c9d	-0.036007512
210	0x3e6409e6	0.22269401
211	0xbf076132	-0.52882683
212	0xbf0b3e75	-0.54392177
213	0xbe4760c2	-0.19470504
214	0xbeb7282c	-0.35772836
215	0x3f15984f	0.5843553
216	0x3d9d06f4	0.07667342
217	0x3db95577	0.09049504
218	0x3ea49c8b	0.32150683
219	0x3d9f01cc	0.077640146
220	0x3cf63670	0.030055255
221	0x3dbc0e6e	0.0918244
222	0x3ee93978	0.45551658
223	0x3e8302b4	0.25588
224	0x3e9a1982	0.30097586
225	0xbddfc780	-0.109267235
226	0x3e8a83f1	0.27053788
227	0x3f598770	0.84972286
228	0xbebd5a1f	-0.3698282
229	0x3e35475d	0.17703004
230	0x3f062f44	0.5241587
231	0xbd5a32c6	-0.053271078
232	0x3ef908fd	0.4863967
233	0x3de53336	0.11191408
234	0x3ee614fc	0.44937885
235	0xbe123b29	-0.1428038
236	0x3f0eaf80	0.5573654
237	0x3d93041d	0.07178519
238	0x3dbfc8ac	0.09364447
239	0xbeeca86f	-0.46222255
240	0xbd775bb6	-0.060390197
241	0x3e8a6056	0.27026623
242	0xbe397888	-0.18112385
243	0x3f1ffe63	0.6249754
244	0x3c836fcb	0.016044518
245	0x3e615be4	0.2200771
246	0xbe19d97d	-0.15024371
247	0x3df43e05	0.11925892
248	0x3e4d63a2	0.20057538
249	0xbee34050	-0.44385004
250	0x3e7bfd96	0.24608454
251	0x3f128a9a	0.5724274
252	0x3f1ee132	0.6206237
253	0xbd57a79c	-0.05265008
254	0x3cf0462b	0.029330334
255	0x3ec395c8	0.38200212

encoder.gcs.3.bias f4 [64]
0	0xbdf404f9	-0.11915011
1	0x3ddf6231	0.109074004
2	0x3da3f79e	0.080062136
3	0xbc9ea626	-0.019366335
4	0xbdc391be	-0.095492825
5	0xbddbfa2c	-0.10741076
6	0xbd6299e6	-0.05532255
7	0x3dc61304	0.09671596
8	0x3cbc052e	0.022951689
9	0xbdae8c52	-0.08522858
10	0xbd9bedf1	-0.07613743
11	0xbe302b7e	-0.17204091
12	0xbe175bb9	-0.14781083
13	0xbd8c53ba	-0.06851907
14	0xbe3c917b	-0.18414871
15	0xbd91e221	-0.07123209
16	0xbdf12ee4	-0.11776522
17	0xbde7543e	-0.11295365
18	0xbd75365a	-0.059866287
19	0xbcd25b04	-0.025678165
20	0xbe9620a4	-0.29321778
21	0xbd750b85	-0.05982544
22	0xbc82f8b0	-0.015987724
23	0xbe059c95	-0.13048013
24	0xbdfcc1e4	-0.12341669
25	0xbd7bffeb	-0.06152336
26	0x3ca84ee0	0.020545423
27	0xbe0f4edb	-0.13994925
28	0xbe718070	-0.23584151
29	0xbd976224	-0.07391766
30	0xbe23ac0c	-0.159836
31	0x3d7c67bf	0.061622377
32	0xbdfa0110	-0.12207234
33	0xbde91a8d	-0.11382017
34	0x3cc83c5a	0.02444284
35	0xbd109777	-0.035300698
36	0x3dd2ff7c	0.10302636
37	0xbd038d9f	-0.032117482
38	0xbd5233e5	-0.05131902
39	0xbce7261d	-0.028216416
40	0x3d16ace9	0.036785994
41	0x3dd1740f	0.102272145
42	0x3d05c07f	0.03265428
43	0xbdd1def7	-0.10247605
44	0xbe051eaf	-0.12999986
45	0x3dd234ca	0.10263975
46	0xbdd13ded	-0.102168895
47	0xbe11599a	-0.14194337
48	0xbc804367	-0.01565714
49	0x3db72434	0.08942452
50	0xbc873727	-0.01650579
51	0xbc64ae29	-0.013957539
52	0xbdd08282	-0.101811424
53	0xbd261dd1	-0.04055578
54	0xbdaec28f	-0.08533203
55	0xbdc18ee1	-0.0945108
56	0xbdbef6b6	-0.093244
57	0x3d22e7e2	0.039771922
58	0xbeab606d	-0.33472005
59	0xbc956098	-0.018234536
60	0xbe1306d2	-0.1435807
61	0xbd1a9e61	-0.0377487
62	0xbd21d743	-0.03951193
63	0xbccc0587	-0.02490498

encoder.gcs.4.weight f4 [32, 64]
0	0xbd6b4998	-0.05744323
1	0xbee386ca	-0.44438773
2	0xbe0b56cc	-0.13607329
3	0x3e51bd8c	0.20482463
4	0x3e60aef6	0.21941742
5	0x3d9f4837	0.07777446
6	0x3e43a5f3	0.19106273
7	0xbe21272b	-0.15737598
8	0x3e0bb287	0.13642322
9	0xbe672cb3	-0.22575645
10	0x3e399171	0.18121888
11	0xbe918c78	-0.28427482
12	0x3e3e9b53	0.18613939
13	0x3e45570b	0.19271486
14	0x3d861bab	0.06548246
15	0x3e82557f	0.25455853
16	0xbc83fb4b	-0.016111037
17	0x3e5a6feb	0.21331756
18	0x3e02f9f9	0.1279067
19	0x3e103f82	0.14086726
20	0xbd4bb7ea	-0.04973594
21	0x3d787d53	0.060666393
22	0x3da274c8	0.079324305
23	0x3e648a09	0.22318281
24	0x3bfd71c5	0.0077345097
25	0x3e491d20	0.19640017
26	0x3e20a879	0.15689267
27	0xbddaad1d	-0.1067755
28	0xbf0531e6	-0.52029264
29	0x3e07b967	0.13254319
30	0xbdf129c7	-0.117755465
31	0xbc4759db	-0.012167419
32	0x3e8b8390	0.27248812
33	0xbcabf254	-0.020989574
34	0xbe59e47a	-0.21278563
35	0xbeb05bff	-0.34445187
36	0xbe9dd1f1	-0.30824235
37	0x3d45a5d2	0.04825384
38	0xbf262854	-0.64905286
39	0xbed12cd6	-0.4085452
40	0xbd48687a	-0.04892776
41	0xbe3c30ad	-0.18377943
42	0x3e8a13ae	0.2696814
43	0x3e72405c	0.23657364
44	0xbec18f0b	-0.37804446
45	0x3e31ad24	0.17351204
46	0x3d8502fe	0.06494711
47	0x3e4431b1	0.19159581
48	0x3e921a4f	0.28535697
49	0xbe7b58c8	-0.24545586
50	0x3d806b26	0.06270437
51	0xbd641e9d	-0.055693258
52	0x3d46a0b4	0.048493102
53	0x3db56414	0.08856979
54	0xbd2df228	-0.042467266
55	0x3d01db90	0.03170353
56	0xbc52b9ee	-0.012861712
57	0x3d0ae341	0.033908132
58	0xbe96dedf	-0.29466912
59	0xbe2384e4	-0.15968663
60	0x3d930e29	0.07180435
61	0x3a9e450b	0.001207502
62	0xbeafa8a0	-0.34308338
63	0xbf27b4ae	-0.6551007
64	0xbd55a0b3	-0.052155208
65	0xbe1ad7a1	-0.15121318
66	0xbe2b3325	-0.16718729
67	0xbe1d5263	-0.1536346
68	0xbc3aae40	-0.0113940835
69	0xbe816b19	-0.25277022
70	0xbf09f7a5	-0.538935
71	0xbd7262a9	-0.05917612
72	0x3d21eeef	0.039534505
73	0xbce5dc9c	-0.028059296
74	0x3d5c075f	0.053717967
75	0xbe705cfc	-0.2347297
76	0xbd45793a	-0.048211314
77	0xbe574ac0	-0.21024609
78	0xbdb8a813	-0.090164326
79	0x3db75573	0.08951845
80	0xbd9ecdb8	-0.077540815
81	0xbdc88651	-0.09791244
82	0xbc153583	-0.0091069965
83	0x3b4a70ff	0.0030890105
84	0x3ca63a24	0.020291395
85	0xbead745e	-0.33877844
86	0xbe3c7b93	-0.18406515
87	0xbdb229ee	-0.08699404
88	0xbeff651c	-0.49881828
89	0xbe25c021	-0.16186573
90	0x3c7187b2	0.014741825
91	0xbe4cb10c	-0.19989413
92	0xbdae76c9	-0.0851875
93	0xbe80be07	-0.2514498
94	0xbe17f2d5	-0.14838727
95	0xbf05f99f	-0.52334017
96	0x3c9409cd	0.01807108
97	0xbeadc7f2	-0.3394161
98	0xbeba7b36	-0.36422127
99	0xbea18788	-0.31548715
100	0xbd59a5fe	-0.053136818
101	0xbe8c5929	-0.27411774
102	0xbea15339	-0.31508806
103	0xbddbfe06	-0.107418105
104	0xbe9a8be4	-0.30184853
105	0x3c88ee03	0.016715055
106	0xbd251cbd	-0.04031061
107	0x3d746cda	0.05967412
108	0xbd4e4908	-0.050362617
109	0x3ebe89bf	0.37214467
110	0xbdcfe8a7	-0.10151797
111	0xbe9afbb5	-0.30270162
112	0xbe1e0c2d	-0.15434332
113	0xbd686d47	-0.05674484
114	0xbe841263	-0.25795278
115	0xbea45b74	-0.32101023
116	0x3e0fa806	0.1402894
117	0xbe9cd136	-0.30628365
118	0xbe2b7d61	-0.16747047
119	0xbe7c2c81	-0.24626352
120	0xbf82c43f	-1.021614
121	0xbeb3005a	-0.34961206
122	0x3e9ab7b8	0.3021829
123	0xbcd213a8	-0.025644138
124	0xbea477a2	-0.32122523
125	0xbbfc2cd7	-0.007695775
126	0xbe1b3800	-0.15158081
127	0x3bb6d9b6	0.0055801524
128	0x3bb22b97	0.005437325
129	0x3df4ba51	0.119495995
130	0xbef4eeca	-0.47838432
131	0x3d598a99	0.053110693
132	0x3f0074cc	0.5017822
133	0x3d61e332	0.05514831
134	0x3d901c38	0.07036632
135	0xbeb3b343	-0.35097703
136	0x3f101c66	0.5629333
137	0xbbebc541	-0.0071951454
138	0x3e82c1f5	0.25538602
139	0xbe051099	-0.12994613
140	0xbe1fd99a	-0.15610352
141	0xbd1f1c5a	-0.038845398
142	0x3db54bb4	0.0885233
143	0xbf865c17	-1.0496854
144	0xbe10f40a	-0.14155594
145	0xbeaad8b7	-0.33368465
146	0xbf2bd2aa	-0.6711832
147	0x3d8c9892	0.06865038
148	0xbede1ce7	-0.43381426
149	0x3e3993c8	0.1812278
150	0xbbe644b0	-0.007027231
151	0x3da82ac7	0.08211284
152	0x3b481c63	0.0030534498
153	0xbf658fc6	-0.89672506
154	0x3e8aa278	0.2707708
155	0xbd9eed8d	-0.07760153
156	0xbe028188	-0.12744725
157	0xbe490b8e	-0.19633314
158	0xbe167da4	-0.14696366
159	0x3f08a87b	0.5338208
160	0xbf42217c	-0.75832343
161	0x3dbc6a27	0.091999345
162	0xbeeb205b	-0.45923123
163	0xc0086674	-2.1312532
164	0x3e5409bf	0.20706843
165	0xbdb5ede9	-0.088832684
166	0xbe399251	-0.18122222
167	0x3e6c7352	0.23090866
168	0xbe6e2531	-0.23256375
169	0xbc3cdd22	-0.011527332
170	0x3d86bd91	0.06579126
171	0xbdad7576	-0.084696695
172	0xbf0f5c41	-0.56000143
173	0x3d7599c0	0.05996108
174	0xbef695c8	-0.4816115
175	0xbebfb9ec	-0.37446535
176	0x3efe12a6	0.49623603
177	0x3d3ebead	0.04656856
178	0x3e2ecb00	0.17069626
179	0x3e181d92	0.1485503
180	0x3ec8b68c	0.39201772
181	0xbf251590	-0.64486027
182	0x3d3421b1	0.043977443
183	0x3d9240f8	0.07141298
184	0xbec266ab	-0.37968954
185	0x3e12d414	0.14338714
186	0xbed64ff6	-0.4185788
187	0x3e7834bb	0.24238865
188	0x3dc94966	0.09828453
189	0xbf6da4bb	-0.92829484
190	0xbe328567	-0.17433701
191	0x3da58e9a	0.0808384
192	0xbdd97b47	-0.106192164
193	0x3c6cac48	0.014445372
194	0xbe1405b1	-0.14455296
195	0xbe591866	-0.21200714
196	0x3e4ddf55	0.20104726
197	0xbe982f4a	-0.2972358
198	0xbf582fd7	-0.84448
199	0xbcdc1da3	-0.0268696
200	0x3e7c0c1d	0.24613996
201	0xbe5a6fa2	-0.21331647
202	0xbd3500e3	-0.0441903
203	0xbe8e434b	-0.27785715
204	0xbef4348b	-0.47696337
205	0xbe8accc9	-0.27109364
206	0xbe2aae48	-0.16668046
207	0x3db08a43	0.08620121
208	0xbe07e0ef	-0.13269399
209	0x3d6ab31c	0.05729972
210	0xbe160701	-0.1465111
211	0xbe37a27a	-0.17933074
212	0xbe49e6e1	-0.1971698
213	0xbea11970	-0.3146472
214	0xbe19900b	-0.14996354
215	0x3cc25422	0.023721758
216	0xbdb93c15	-0.09044663
217	0xbf132b49	-0.5748792
218	0x3d480179	0.04882953
219	0xbe6a8805	-0.2290345
220	0xbeac37f5	-0.33636442
221	0xbd2de145	-0.042451162
222	0xbe687ee6	-0.22704658
223	0xbf4494c1	-0.7678948
224	0xbe5254d4	-0.20540172
225	0xbee19e08	-0.4406588
226	0xbe02ed74	-0.12785894
227	0xbe35f3ca	-0.1776878
228	0xbeb74359	-0.3579357
229	0xbec44b62	-0.38338763
230	0xbe7bb777	-0.24581705
231	0xbe27310f	-0.16327308
232	0xbe2516ad	-0.16121931
233	0xbdf59d65	-0.11992911
234	0xbe91228b	-0.28346667
235	0x3da1061c	0.078624934
236	0xbdca0ac4	-0.09865335
237	0x3e48d259	0.19611491
238	0xbe1e45b3	-0.15456276
239	0x3dbd1bcd	0.09233818
240	0xbf15ef9c	-0.5856874
241	0xbe75bd22	-0.2399793
242	0xbe285d5a	-0.16441861
243	0xbe0ca651	-0.1373532
244	0xbe536e17	-0.20647465
245	0xbf09ca28	-0.5382409
246	0xbea053f3	-0.31314048
247	0xbe8ed6de	-0.27898306
248	0xbeb2a495	-0.3489119
249	0xbe6fd750	-0.23421979
250	0x3ea0c726	0.31401938
251	0x3e03cec0	0.12871838
252	0xbe785af4	-0.24253446
253	0xbe948e54	-0.29014838
254	0xbef26cce	-0.47348636
255	0xbef4198b	-0.47675738

encoder.gcs.4.bias f4 [32]
0	0xbd75715a	-0.059922554
1	0xbd8e2ad3	-0.06941762
2	0xbddbc6a8	-0.1073125
3	0x3dea47df	0.114394896
4	0xbd761b70	-0.06008476
5	0xbdebc03a	-0.11511274
6	0xbd9945c0	-0.07484007
7	0xbd9ec95e	-0.077532515
8	0xbdb00d19	-0.08596248
9	0xbde6cb48	-0.112692416
10	0x3d7d1465	0.061787028
11	0x3dddc13c	0.10827872
12	0xbd9d7ff9	-0.076904245
13	0x3dc609af	0.09669816
14	0xbe2e22b2	-0.17005423
15	0x3dfbc139	0.12292714
16	0x3da77a32	0.08177604
17	0xbdc61f63	-0.09673955
18	0xbd93c309	-0.072149344
19	0xbd9034e3	-0.07041337
20	0xbd0838db	-0.033257347
21	0x3dcf9c55	0.1013724
22	0x3d56f644	0.05248095
23	0xbdc7f83a	-0.09764142
24	0xbd2c797a	-0.042108037
25	0xbda5e0cb	-0.080995165
26	0xbe0e0ab5	-0.13871272
27	0xbe3bc869	-0.18338169
28	0x3de019c5	0.10942415
29	0xbe4494fa	-0.19197455
30	0xbe00d675	-0.12581809
31	0x3dca0154	0.098635346

encoder.gcs.5.weight f4 [16, 32]
0	0x3e76dc75	0.24107535
1	0x3e53df78	0.20690715
2	0x3ec4f6fa	0.38469678
3	0x3edbbf90	0.42919588
4	0xbed6fa64	-0.41987908
5	0xbe786441	-0.24256994
6	0xbe703ad5	-0.23459943
7	0xbeb027f9	-0.34405497
8	0xbeb14f6c	-0.34630907
9	0xbd69b943	-0.057061445
10	0x3eb50f5b	0.35363278
11	0xbdd3ae75	-0.103360094
12	0x3dd35278	0.10318464
13	0xbedc566b	-0.43034682
14	0xbd17d98d	-0.037072707
15	0xbed9c703	-0.42534646
16	0x3ea57969	0.3231919
17	0x3e66796b	0.22507255
18	0xbeca11b3	-0.39466628
19	0x3d1b5e2a	0.0379316
20	0xbe089afc	-0.13340372
21	0xbe153f2c	-0.1457488
22	0x3d758da5	0.059949536
23	0x3dc219fe	0.09477614
24	0xbebee455	-0.3728358
25	0xbdf91449	-0.12162072
26	0xbd950017	-0.07275408
27	0x3dbbbaac	0.09166464
28	0x3df2c024	0.11853054
29	0xbea97fc3	-0.33105287
30	0x3c8e0e23	0.017340725
31	0x3e658da1	0.22417308
32	0x3ea3e413	0.32009944
33	0xbe2ceceb	-0.16887252
34	0xbe967089	-0.29382733
35	0xbeba008a	-0.36328536
36	0xbe4bdf0c	-0.19909304
37	0xbed21be5	-0.41036907
38	0x3e115381	0.1419201
39	0xbe18c616	-0.14919314
40	0xbeab22b2	-0.33424908
41	0xbdcf1233	-0.10110893
42	0x3ed44e7a	0.41466123
43	0x3d769629	0.060201798
44	0xbea8e9f6	-0.32990998
45	0xbea93bd0	-0.33053446
46	0x3e0b0315	0.13575394
47	0xbd8f4163	-0.069948934
48	0xbe6eb704	-0.23312002
49	0x3e8dfa94	0.27730238
50	0x3ea42fc0	0.3206768
51	0xbe36bb1e	-0.17844817
52	0x3db2bad4	0.08727041
53	0xbe511d7f	-0.20421408
54	0xbc972b52	-0.018453274
55	0xbcaab0b8	-0.02083622
56	0x3db1fc4d	0.08690701
57	0x3e7fd8f9	0.24985112
58	0xbeb2a97b	-0.34894928
59	0xbe8fe168	-0.2810166
60	0x3ed65055	0.41858163
61	0x3e07d7ed	0.13265963
62	0x3e8091cc	0.25111234
63	0xbeda332c	-0.42617166
64	0x3e4eda12	0.20200375
65	0xbe545b79	-0.20738019
66	0x3e213e66	0.1574646
67	0x3dfd6f3d	0.12374733
68	0xbec59cf8	-0.3859632
69	0x3e7f7604	0.24947363
70	0x3e4bf950	0.19919324
71	0xbe83d58d	-0.25748864
72	0x3e0d67d2	0.13809136
73	0xbe8e7f3e	-0.27831453
74	0x3d5ba0b2	0.053620048
75	0x3e5f2216	0.21790347
76	0xbebdd950	-0.3707986
77	0x3eae930b	0.3409656
78	0xbe4e5638	-0.20150077
79	0xbe9e8631	-0.30961755
80	0x3e7ca425	0.24671991
81	0x3e50cdba	0.20390978
82	0xbeae0ee5	-0.3399574
83	0x3d9899f9	0.07451243
84	0xbe223124	-0.15839058
85	0x3e8f242c	0.27957284
86	0xbea89599	-0.32926634
87	0x3db19d3b	0.086725675
88	0xbce913a2	-0.028451744
89	0x3cb0bb1d	0.021573598
90	0x3e19ec85	0.15031631
91	0xbdd586b6	-0.10426085
92	0xbe8a2f1f	-0.26989076
93	0xbeda8797	-0.42681572
94	0xbe4406ca	-0.19143215
95	0xbe6581b8	-0.22412765
96	0xbed2a991	-0.41144994
97	0xbeb1e760	-0.34746838
98	0xbe349fa4	-0.17639023
99	0x3e5d4be0	0.21610975
100	0xbd8d1689	-0.06889064
101	0x3d87a34a	0.06622942
102	0x3e49e2f6	0.19715485
103	0xbece00cb	-0.4023498
104	0xbea2beef	-0.31786296
105	0x3ebc3f27	0.3676693
106	0xbeba6ca6	-0.36411017
107	0xbe9f2784	-0.31084836
108	0x3e0dd107	0.13849269
109	0x3e9c2b00	0.30501556
110	0xbd7e9e44	-0.062162653
111	0xbdf73eb6	-0.12072508
112	0x3e25c796	0.16189417
113	0x3ed7ae86	0.42125338
114	0x3e70afde	0.23504588
115	0x3de246de	0.11048673
116	0x3e94c2b4	0.29054797
117	0x3ec6f0f7	0.38855717
118	0xbe9f4372	-0.31106144
119	0x3ed69250	0.41908503
120	0xbe0c9f94	-0.13732749
121	0xbe9915e3	-0.2989951
122	0xbeb72ac5	-0.35774818
123	0x3e7aeaeb	0.24503677
124	0xbe5787a1	-0.21047832
125	0x3eb75e7b	0.3581427
126	0x3eb61784	0.35564816
127	0x3e8d27f9	0.2756956
128	0x3ebf88fe	0.37409204
129	0x3e6a2bb6	0.22868237
130	0xbdb0d0d9	-0.086335845
131	0x3d58fe71	0.05297703
132	0x3e162d1a	0.14665642
133	0xbdda5bc6	-0.10662036
134	0xbda647fd	-0.081191994
135	0xbeb26fc8	-0.34850907
136	0x3cb401a5	0.02197344
137	0x3d5469bc	0.05185865
138	0x3df57442	0.11985065
139	0x3e890459	0.2676113
140	0xbddcc509	-0.10779769
141	0xbdb8f319	-0.09030742
142	0xbd670a04	-0.056406036
143	0xbeb3e5bc	-0.3513621
144	0x3ed18a6d	0.40925923
145	0x3d637338	0.055529803
146	0x3eadf96a	0.3397935
147	0xbec0ccef	-0.37656352
148	0xbd539a97	-0.0516611
149	0x3e40398d	0.18771954
150	0xbe132897	-0.14370953
151	0x3e9d31cc	0.30702055
152	0x3e909331	0.28237298
153	0xbd6bb590	-0.0575462
154	0x3edad54b	0.42740855
155	0xbe8bdb9f	-0.27315995
156	0xbed13697	-0.4086196
157	0xbe9173c5	-0.28408638
158	0xbe84b73d	-0.2592105
159	0x3ea5e376	0.324001
160	0x3cf2db34	0.02964554
161	0xbecf9879	-0.40546015
162	0xbece6f79	-0.40319422
163	0x3ecb4f08	0.39708734
164	0xbd914da1	-0.07094885
165	0xbed7a799	-0.42120054
166	0x3e8145f0	0.2524867
167	0xbe595d1c	-0.21226925
168	0xbc9b81e3	-0.018982833
169	0x3ec202de	0.37892812
170	0x3e5d1d49	0.21593203
171	0xbeb489cb	-0.35261378
172	0xbe801b1a	-0.25020677
173	0x3d5fe1c7	0.054658677
174	0xbeda0409	-0.42581204
175	0xbec5267a	-0.38505918
176	0x3ec6dc19	0.38839796
177	0x3e257902	0.16159442
178	0x3ec3bec4	0.3823148
179	0x3d6349a6	0.05549016
180	0x3c4470cc	0.0119897835
181	0xbd512621	-0.051061753
182	0xbe2cb45e	-0.1686568
183	0xbdebd4e0	-0.11515212
184	0xbe9abe64	-0.30223382
185	0xbe80ac11	-0.25131276
186	0xbd8f66a0	-0.07001996
187	0xbe993817	-0.29925606
188	0xbe927d85	-0.2861139
189	0xbe0ed53b	-0.13948528
190	0x3d1ed307	0.03877547
191	0xbdef2a0c	-0.11677942
192	0x3e761c56	0.24034247
193	0x3e6adc92	0.22935703
194	0x3eaac85f	0.33355996
195	0x3ea09063	0.31360158
196	0x3e96ec25	0.2947704
197	0x3e616a4a	0.22013202
198	0x3c5fd91e	0.013662605
199	0xbed6b10d	-0.41931954
200	0xbdc9edfa	-0.098598436
201	0xbe389761	-0.18026496
202	0x3db8dd80	0.09026623
203	0xbeb8c484	-0.3608743
204	0xbe1d7a17	-0.15378605
205	0xbedb3274	-0.4281193
206	0x3ecdb2c1	0.4017544
207	0x3ec471ad	0.38367978
208	0xbe8f7ffa	-0.28027326
209	0x3e30c83e	0.17263886
210	0x3e98ad64	0.29819787
211	0x3dacd6a5	0.08439378
212	0xbe8a8466	-0.27054137
213	0x3e903579	0.28165796
214	0x3d82f331	0.06394041
215	0x3e368f96	0.17828211
216	0xbdcf7424	-0.10129574
217	0xbeb4780d	-0.3524784
218	0xbe6daee4	-0.23211247
219	0xbeb1ca54	-0.34724677
220	0x3e5e3db0	0.2170322
221	0xbd5d3f32	-0.054015346
222	0x3d241875	0.040062387
223	0x3ebffbbd	0.3749675
224	0xbe24f6b3	-0.16109733
225	0xbe336b8a	-0.17521492
226	0x3ec8657c	0.39139926
227	0x3e0baa6a	0.13639227
228	0x3e75ab1e	0.23991057
229	0x3edd7427	0.4325268
230	0xbe7b9262	-0.2456756
231	0x3ec8385b	0.39105496
232	0x3ea42ca3	0.32065305
233	0x3e746a8d	0.23868771
234	0xbeaa4f0c	-0.33263433
235	0x3d7c74ee	0.06163495
236	0xbda8da32	-0.082447425
237	0xbeab1d8c	-0.3342098
238	0x3e4e11f0	0.2012403
239	0x3e945c27	0.28976557
240	0xbe1e691d	-0.15469785
241	0xbdee2829	-0.11628754
242	0x3e061819	0.1309513
243	0xbedad496	-0.42740315
244	0x3e49f8a7	0.1972376
245	0x3e450d2b	0.19243304
246	0xbe429f4e	-0.19006082
247	0x3dc52c35	0.096275724
248	0xbd2ae2e5	-0.04172029
249	0x3e52fa37	0.20603262
250	0x3e42b927	0.19015943
251	0x3eb1bb85	0.3471338
252	0x3ead5221	0.33851722
253	0xbed8eb0b	-0.42366824
254	0xbebd5b9a	-0.3698395
255	0x3ea91d2c	0.3303007

encoder.gcs.5.bias f4 [16]
0	0xbd8d88e1	-0.06910873
1	0x3e08a640	0.1334467
2	0xbe115d81	-0.14195825
3	0x3e1fb531	0.15596463
4	0x3e0b4d32	0.13603666
5	0x3e1fff61	0.15624763
6	0xbdff3275	-0.12460796
7	0xbe11bb32	-0.14231566
8	0x3e34ce6a	0.17656866
9	0x3dd9f8b6	0.10643141
10	0x3c9da27f	0.019242523
11	0x3db428a7	0.08796816
12	0x3e0fc9e5	0.1404186
13	0x3d9a67e3	0.07539346
14	0x3d52e258	0.05148539
15	0x3c821b34	0.015882112
